heart_model.pth (torch, 14896 bytes, 6 tensors)

fc1.weight f4 [64, 18]
0	0xbcc4afe8	-0.02400966
1	0x3d9254ca	0.071450785
2	0x3dc560ce	0.09637605
3	0x3e0fcbbb	0.14042561
4	0xbe26e17c	-0.16296953
5	0xbd94b83c	-0.072617024
6	0xbe14f574	-0.14546758
7	0x3e5c06cd	0.2148697
8	0xbe63823c	-0.22217649
9	0xbe6f9489	-0.23396505
10	0xbe338456	-0.17530951
11	0x3ddb70d6	0.10714881
12	0x3c7c2c50	0.015391424
13	0xbd8be8f2	-0.0683154
14	0x3dbff5fe	0.09373091
15	0xbe712ad0	-0.23551488
16	0x3ceeee48	0.029166356
17	0xbdf6cdc2	-0.12050964
18	0xbc88f417	-0.016717954
19	0x3e08acda	0.13347188
20	0x3e2249b6	0.15848431
21	0x3e664e7d	0.22490878
22	0x3e855f33	0.26049194
23	0x3e491f38	0.19640815
24	0xbd7086e7	-0.058722403
25	0x3e5294ca	0.20564571
26	0xbe08404b	-0.13305776
27	0xbded5712	-0.11588873
28	0x3e90771a	0.28215867
29	0x3dd10ecb	0.102079
30	0x3dc9e6d7	0.09858482
31	0x3e751a26	0.23935756
32	0xbe064dfe	-0.13115689
33	0xbe6438fa	-0.2228736
34	0xbdc0690f	-0.09395038
35	0x3d10a469	0.035313044
36	0xbe103eaa	-0.14086404
37	0x3d6bec20	0.057598233
38	0xbdabe256	-0.083927795
39	0xbd0fb1aa	-0.035081543
40	0x3d0f6f2b	0.035018127
41	0xbdaed635	-0.085369505
42	0x3d1e9ec2	0.038725622
43	0xbde6aea8	-0.11263782
44	0x3de3e68c	0.11127958
45	0x3e471787	0.19442569
46	0x3d7e5b20	0.062098622
47	0x3ce284bd	0.027651185
48	0xbdba2dc0	-0.09090757
49	0x3df3fd6d	0.119135715
50	0x3e136941	0.1439562
51	0xbe036ac1	-0.12833692
52	0xbe36042a	-0.17775026
53	0x3e278c77	0.16362177
54	0x3df71e55	0.12066332
55	0x3d8b145e	0.06790994
56	0x3e828734	0.25493777
57	0x3ea49174	0.32142222
58	0x3e920a90	0.28523684
59	0x3da90381	0.082526214
60	0xbdd4c44a	-0.10389002
61	0x3eb88529	0.36039093
62	0x3e95e398	0.29275203
63	0xbdb5dc40	-0.088799
64	0x3e1dd700	0.15414047
65	0xbd5cb8c6	-0.05388715
66	0x3e253c57	0.16136299
67	0x3e2be722	0.16787389
68	0x3ea18c96	0.3155257
69	0xbdf9fefc	-0.122068375
70	0xbe097e1f	-0.13427018
71	0x3e5f191d	0.21786924
72	0xbd0f1398	-0.034930795
73	0x3c9f7998	0.01946716
74	0xbe290668	-0.1650635
75	0x3d20de7c	0.039274678
76	0xbe29c131	-0.16577603
77	0x3df14a4e	0.117817506
78	0x3ddefd0a	0.10888107
79	0xbe4bbbc3	-0.19895844
80	0x3e527557	0.20552574
81	0x3dac031e	0.08399032
82	0xbe07b79a	-0.13253632
83	0xbe63b44d	-0.22236748
84	0xbdee4c17	-0.11635607
85	0xbe4e451f	-0.20143555
86	0xbdac472e	-0.08412014
87	0xbe47c844	-0.19509989
88	0x3e262b63	0.16227488
89	0xbdc57fe4	-0.09643534
90	0xbd93f50c	-0.07224473
91	0x3e40c6f8	0.188259
92	0x3e2aaa38	0.16666496
93	0xbd6b5458	-0.057453483
94	0x3d853424	0.06504086
95	0xbd6ae51c	-0.057347402
96	0xbcd74761	-0.026279153
97	0xbe621389	-0.22077765
98	0xbe6af9e6	-0.22946891
99	0xbe484c4c	-0.19560355
100	0x3e463a6f	0.19358228
101	0xbda1c2c8	-0.0789848
102	0xbe55f122	-0.20892766
103	0x3e3ebf79	0.18627729
104	0x3e24bef9	0.16088475
105	0xbe3d8d5f	-0.1851096
106	0xbd86f74c	-0.06590137
107	0xbd922902	-0.07136728
108	0x3d6ccd9c	0.057813272
109	0x3cc473f8	0.02398108
110	0x3e713d93	0.23558645
111	0x3d5e4dd4	0.05427344
112	0xbdc0d75e	-0.09416078
113	0xbdd58db6	-0.1042742
114	0x3cd5cf78	0.026099905
115	0xbe33ced0	-0.17559361
116	0x3e1f259f	0.15541695
117	0xbdb2d6da	-0.08732386
118	0xbd8d1c3e	-0.068901524
119	0xbd8cf2da	-0.06882258
120	0x3e524ae1	0.20536377
121	0x3e0e6b87	0.13908206
122	0xbc921a48	-0.017834798
123	0xbd5c4300	-0.053774834
124	0xbd351798	-0.044211954
125	0xbdf2128f	-0.11819946
126	0x3da2742f	0.079323165
127	0x3d64ea18	0.05588731
128	0xbe93258a	-0.28739578
129	0xbec1e44a	-0.37869483
130	0xbea59554	-0.3234049
131	0xbe01c770	-0.12673736
132	0xbea99118	-0.3311851
133	0x3c9f7c54	0.019468464
134	0xbca2d4db	-0.019876888
135	0x3dc7b67a	0.097516015
136	0x3df874d0	0.12131655
137	0xbe0c5a49	-0.13706316
138	0xbe9dffe2	-0.30859286
139	0x3e130d84	0.14360625
140	0x3e5e6945	0.21719845
141	0xbe00a7ca	-0.12564006
142	0xbea1275d	-0.31475344
143	0x3c84ccd2	0.016210947
144	0xbd52af93	-0.051436972
145	0xbe852d30	-0.26011038
146	0x3df76ccb	0.120812975
147	0xbe590bc0	-0.21195889
148	0x3de43171	0.11142243
149	0x3d4f194d	0.050561238
150	0x3e0299d2	0.1275399
151	0x3d9aba9d	0.07555125
152	0x3e0ec6fe	0.13943097
153	0xbe34a1db	-0.17639868
154	0xbe028ca2	-0.1274896
155	0x3d5d34d5	0.054005463
156	0xbe10d744	-0.14144617
157	0x3dfc54c3	0.123208545
158	0x3df58797	0.11988752
159	0xbe24c473	-0.16090564
160	0xbe3dd6c5	-0.1853896
161	0x3d11b2f9	0.035571072
162	0x3e9223de	0.2854299
163	0x3ca5d3d5	0.020242611
164	0x3db86406	0.09003453
165	0xbd110794	-0.035407618
166	0xbb9e3656	-0.0048282547
167	0xbd81cb3b	-0.06337591
168	0x3e1fa42d	0.15589972
169	0xbe1ef792	-0.15524128
170	0x3c973d68	0.018461898
171	0x3de72b8e	0.11287604
172	0xbd33587d	-0.04378556
173	0x3d11493e	0.03547024
174	0x3d80d3a8	0.0629037
175	0x3d19a6a5	0.03751244
176	0x3c8fe661	0.017565908
177	0xbe881a00	-0.26582336
178	0xbd8718c3	-0.0659652
179	0x3d3d7b11	0.046259943
180	0xbdf5e229	-0.12006027
181	0xbea587c5	-0.32330146
182	0x3dd3ed32	0.10347976
183	0xbe3a50b1	-0.18194844
184	0xbe6ecfc3	-0.23321442
185	0xbe998195	-0.29981676
186	0xbea3c5a4	-0.31986725
187	0xbe071be5	-0.13194235
188	0xbe82fc21	-0.25582984
189	0x3d90f2a9	0.07077534
190	0xbdb609f2	-0.08888616
191	0xbe0e9772	-0.1392496
192	0x3d8bceba	0.06826539
193	0xbe3c7965	-0.18405683
194	0x3e04590a	0.1292459
195	0xbdfb7f04	-0.12280086
196	0xbe362fe5	-0.17791708
197	0x3e01e329	0.12684311
198	0x3dd0c0b6	0.10193007
199	0xbe2e35b2	-0.1701267
200	0xbd32cdf1	-0.043653432
201	0xbe4d137e	-0.20026967
202	0xbe4e538f	-0.20149063
203	0xbe806285	-0.25075164
204	0x3d9dd0fa	0.07705875
205	0xbe62d02e	-0.22149727
206	0xbda056a2	-0.07829024
207	0x3e4295a4	0.19002396
208	0xbe18b628	-0.14913237
209	0x3e74f603	0.23921971
210	0xbe0f74fd	-0.14009471
211	0xbe4db47f	-0.20088385
212	0xbb18660c	-0.0023254184
213	0xbe12b4e3	-0.14326815
214	0x3e150f4c	0.14556617
215	0x3d048957	0.03235754
216	0xbe3a917c	-0.1821956
217	0xbe9ff4d5	-0.3124148
218	0xbd706bd4	-0.058696583
219	0xbe8b9be8	-0.27267385
220	0x3d7f7122	0.06236375
221	0xbe066df5	-0.13127883
222	0xbe898966	-0.2686264
223	0x3da80f28	0.08206016
224	0xbe2c905d	-0.16851945
225	0xbe7b059c	-0.24513859
226	0xbe04edf5	-0.12981398
227	0x3d2ab566	0.0416769
228	0x3e26a2b2	0.16273001
229	0xbea62bfc	-0.32455432
230	0xbe532147	-0.20618163
231	0xbe80846c	-0.2510103
232	0x3ddf6704	0.109083205
233	0x3e36cd2e	0.17851707
234	0xbd9dec7e	-0.07711123
235	0xbb4d89c0	-0.0031362623
236	0x3e1401b7	0.14453779
237	0xbe343baf	-0.17600892
238	0xbe230acc	-0.15922087
239	0x3d4d064c	0.050054833
240	0xbdfe2456	-0.12409274
241	0xbe4c8718	-0.19973409
242	0x3db51c5e	0.08843301
243	0x3e00d6d7	0.12581955
244	0x3e587cdd	0.21141382
245	0xbdba6dce	-0.09102975
246	0xbdb6ae42	-0.08919956
247	0xbd1563d0	-0.03647214
248	0x3df4414e	0.119265184
249	0xbe202558	-0.15639246
250	0xbdc7443a	-0.0972981
251	0xbe1aeb80	-0.15128899
252	0xbd845941	-0.06462336
253	0x3e900f18	0.28136516
254	0x3e80331e	0.25039
255	0x3d619c0b	0.055080455

fc1.bias f4 [64]
0	0xbce091b8	-0.027413234
1	0xbf21e653	-0.6324207
2	0x3f2defad	0.6794384
3	0xbf6c5677	-0.92319435
4	0xbd16fce8	-0.036862284
5	0x3e2a388a	0.1662313
6	0x3cec5c78	0.028852686
7	0x3f80c5e5	1.0060393
8	0x3f4ca5a2	0.79940236
9	0xbf5d4db2	-0.8644668
10	0x3f2f75f1	0.6853934
11	0x3edd464a	0.4321769
12	0x3f0289ba	0.50991404
13	0x3e13bc5b	0.1442732
14	0xbf2c5f76	-0.6733316
15	0xbf345222	-0.70437825
16	0xbe07a2b5	-0.13245662
17	0xbf992493	-1.1964287
18	0x3cb46948	0.022022858
19	0x3f612b27	0.8795647
20	0xbe21ce64	-0.15801388
21	0xbecdd351	-0.40200284
22	0xbd962f36	-0.073332235
23	0xbf2bf031	-0.6716338
24	0xbea2b992	-0.31782204
25	0xbd249d34	-0.040188983
26	0x3e176fd9	0.1478876
27	0xbeb9915c	-0.36243713
28	0xbe6d4a85	-0.23172958
29	0xbf5bc19f	-0.8584232
30	0x3f6aa0f2	0.91651833
31	0x3e13a107	0.14416896
32	0xbe0efd2a	-0.13963762
33	0x3e632c75	0.22184928
34	0x3f2cc7c3	0.6749231
35	0xbd0a84c0	-0.033818007
36	0xbd4d7e80	-0.050169468
37	0x3e61abcd	0.22038193
38	0x3f486aab	0.7828776
39	0x3f4747f8	0.7784419
40	0x3e017133	0.12640838
41	0x3ddd46a6	0.10804491
42	0xbf80d642	-1.0065386
43	0x3f81feea	1.0155919
44	0x3f68fddc	0.9101236
45	0xbdd812d0	-0.10550463
46	0x3e40b4cd	0.1881897
47	0xbe05b32b	-0.13056628
48	0xbe6574bd	-0.22407813
49	0x3c2a410f	0.010391488
50	0xbe53123c	-0.20612425
51	0x3e03391b	0.12814753
52	0xbddaac74	-0.10677424
53	0x3dda730a	0.10666473
54	0x3e408423	0.18800406
55	0xbf42cc2d	-0.760928
56	0xbf0dff14	-0.55467343
57	0xbe06406b	-0.13110511
58	0xbdaa015c	-0.083010405
59	0xbe63fe0f	-0.22264884
60	0x3f8a4cb5	1.0804659
61	0x3f0dedc4	0.55440927
62	0xbf3f9211	-0.74832255
63	0xbe483f9f	-0.1955552

fc2.weight f4 [28, 64]
0	0x3de847a4	0.11341789
1	0xbafa7180	-0.0019107312
2	0xbd820b48	-0.06349808
3	0x3daf2114	0.08551231
4	0x3dc2eb7e	0.09517573
5	0x3bb3e3a0	0.0054897815
6	0xbde8108a	-0.113312796
7	0x3de17a12	0.11009611
8	0xbd8b66c7	-0.068067126
9	0xbae11901	-0.001717359
10	0x3d016b43	0.031596433
11	0xbdb445e5	-0.08802394
12	0xbdc0eac7	-0.0941978
13	0x3dbf45d4	0.093394905
14	0xbe008a42	-0.12552741
15	0x3cd4539e	0.025918778
16	0x3d77dfa8	0.06051603
17	0xbdc53356	-0.09628932
18	0x3de45b72	0.11150254
19	0xbdc29f2e	-0.09503017
20	0x3d7d206c	0.061798498
21	0xbd1ec192	-0.03875882
22	0x3da50d58	0.08059186
23	0xbd9a9db4	-0.07549611
24	0x3d402696	0.0469118
25	0x3d8d8e08	0.06911856
26	0xbde7d16a	-0.113192394
27	0xbdd5a849	-0.104324885
28	0x3d0954a4	0.033527985
29	0x3dae5feb	0.08514389
30	0xbd76bb82	-0.060237415
31	0x3de42d5a	0.111414626
32	0xbc5b5600	-0.013387203
33	0xbdd1b760	-0.10240054
34	0xbdbbe5be	-0.09174679
35	0xbde4f754	-0.111799866
36	0xbd00ed74	-0.031476453
37	0xbc297670	-0.010343179
38	0x3ddcb3af	0.107764594
39	0xbdf7dec6	-0.121030375
40	0x3c1dfda0	0.009642988
41	0x3d154c60	0.03644979
42	0x3cc97e51	0.024596365
43	0x3c057990	0.008146659
44	0xbda3377b	-0.079695664
45	0xbab32f00	-0.0013670623
46	0xbd022be0	-0.031780124
47	0x3dd7d971	0.105395205
48	0xbdbee5da	-0.093211845
49	0x3dca143e	0.09867142
50	0x3d084450	0.033268273
51	0xbd6ee35c	-0.058322296
52	0xbdf2f37c	-0.11862847
53	0xbd8db27e	-0.0691881
54	0x3d8dedd2	0.06930126
55	0x3ccad0be	0.02475774
56	0x3d0556e0	0.032553554
57	0x3d71be30	0.059019268
58	0x3d0727f8	0.0329971
59	0xbcb4bac8	-0.02206172
60	0xbd34af04	-0.04411222
61	0xbd44d277	-0.048052277
62	0x3d6a93d4	0.057269886
63	0xbd8ef752	-0.06980766
64	0xbc186d50	-0.009303406
65	0x3d9b386b	0.0757912
66	0x3d346687	0.04404309
67	0x3d05f043	0.032699835
68	0x3d561c70	0.052273214
69	0x3d9dc8ea	0.07704337
70	0xbd8613cc	-0.06546745
71	0xbdcb0da6	-0.099147126
72	0xbd023a58	-0.031793922
73	0xbb1ce2cd	-0.0023938895
74	0xbd29977b	-0.04140423
75	0x3ca52d84	0.020163305
76	0xbd97da84	-0.074147254
77	0x3d850a72	0.06496133
78	0xbe13a74d	-0.14419289
79	0xbe126285	-0.14295395
80	0xbc6f3a10	-0.0146012455
81	0x3d8d4041	0.06897021
82	0x3b534400	0.0032236576
83	0x3d8e07cd	0.06935082
84	0xbd306230	-0.04306239
85	0x3db554aa	0.08854039
86	0xbd78e9b4	-0.06076975
87	0xbdcee2ea	-0.10101874
88	0x3dc2ec36	0.0951771
89	0x3b2193c0	0.0024654716
90	0xbc73f6e0	-0.014890403
91	0xbe075c06	-0.13218698
92	0x3bbc4de0	0.005746588
93	0x3d1b7faf	0.037963565
94	0xbe00920a	-0.1255571
95	0x3de13a6c	0.10997471
96	0x3d5c103c	0.05372642
97	0x3d2f7c94	0.042843416
98	0xbe07e085	-0.13269241
99	0xbc6a7130	-0.014309213
100	0x3dd2c52e	0.10291515
101	0xbcca57e8	-0.02470012
102	0xbdc76104	-0.09735301
103	0x3da44aab	0.08022054
104	0x3cfbc9b8	0.030735835
105	0xbded52fc	-0.11588094
106	0xbdb34f31	-0.08755339
107	0xbd657e3a	-0.056028582
108	0xbd6f1df3	-0.05837817
109	0x3dcf8b94	0.10134044
110	0x3dd0a1a4	0.101870805
111	0x3de67668	0.11253053
112	0xbc5c7420	-0.013455421
113	0xbd999506	-0.07499127
114	0xbd403a20	-0.046930432
115	0xbc8e87b0	-0.017398685
116	0x3c88dd80	0.016707182
117	0x3de8249c	0.11335108
118	0x3dc468e0	0.09590316
119	0xbd13a73a	-0.03604815
120	0x3cbdca07	0.023167623
121	0xbc8b9a30	-0.017041296
122	0x3ded9992	0.11601557
123	0xbd9eef10	-0.07760441
124	0x3de07ef0	0.109617114
125	0x3c0f678b	0.008752714
126	0x3d3b01ab	0.045655888
127	0xbde6ab8c	-0.11263189
128	0xbdfa5ed4	-0.12225118
129	0xbca04da8	-0.01956828
130	0xbdf578aa	-0.119859055
131	0x3b6fd6c0	0.0036596507
132	0xbde6566a	-0.11246951
133	0xbb22ad80	-0.0024822652
134	0xbdb80494	-0.08985248
135	0x3d6f2dd8	0.05839333
136	0x3de37158	0.11105603
137	0x3da0c7f8	0.07850641
138	0x3df85362	0.12125279
139	0x3d8484c2	0.06470634
140	0x3defadac	0.11703047
141	0xbca124e8	-0.019670919
142	0xbdd3d8d0	-0.10344088
143	0xbd8355ce	-0.0641285
144	0x3c5da4b0	0.013528034
145	0x3dbc0816	0.0918123
146	0xbd09a310	-0.033602774
147	0xbd0e220c	-0.03470044
148	0xbd7ba23c	-0.061434016
149	0xbde4ae70	-0.11166084
150	0x3d01c688	0.031683475
151	0x3cbfa510	0.023394138
152	0xbdf8e494	-0.12152973
153	0xbd3ed260	-0.046587348
154	0xbdd405e0	-0.10352683
155	0xbd0ea064	-0.03482093
156	0xbd425ca8	-0.047451645
157	0x3cb50d88	0.022101179
158	0x3dec9054	0.11550966
159	0xbcd21aa0	-0.025647461
160	0x3de212ae	0.11038719
161	0xbd8023a8	-0.06256801
162	0x39f23200	0.0004619509
163	0xbd686794	-0.056739405
164	0xbcf6cd40	-0.030127168
165	0xbc10c970	-0.008837089
166	0xbdec48cc	-0.115373224
167	0x3c8fe4e0	0.01756519
168	0xbc0ca780	-0.008584857
169	0xbda7b4f8	-0.08188814
170	0x3c7390e0	0.014866084
171	0xbd2afd58	-0.041745514
172	0x3b76d240	0.003766194
173	0x3d919344	0.07108167
174	0xbddbcf9a	-0.10732956
175	0xbde10cae	-0.109887466
176	0xbd98e48a	-0.07465465
177	0xbdf0fd96	-0.11767118
178	0x3d23b23c	0.0399649
179	0xbdd047ea	-0.101699665
180	0xbde508be	-0.11183308
181	0x3d947702	0.072492614
182	0xbad0ef80	-0.0015940517
183	0xbd4edfa0	-0.050506234
184	0x3d18283c	0.037147745
185	0xbdd4d97c	-0.10393044
186	0xbdd6dc3e	-0.104912266
187	0x3c90d038	0.017677411
188	0x3df13756	0.117781326
189	0x3d9f46a2	0.07777144
190	0xbcf5e770	-0.030017585
191	0x3c83c348	0.016084328
192	0xbd3f2594	-0.046666697
193	0x3e4cd92b	0.20004718
194	0xbd9494b8	-0.07254928
195	0x3d706d3e	0.05869793
196	0xbdf1d036	-0.11807291
197	0x3b4a211e	0.0030842493
198	0x3c2c76e0	0.010526389
199	0xbed3e29b	-0.41383824
200	0x3d0abf34	0.03387375
201	0x3cdc6625	0.026904175
202	0xbdc9134c	-0.09818134
203	0x3b998550	0.0046850815
204	0xbcecd14d	-0.028908396
205	0xbdc420aa	-0.09576543
206	0xbde090fc	-0.109651536
207	0x3dc76bc1	0.09737349
208	0x3dbf649a	0.0934536
209	0x3e2fcecb	0.17168729
210	0x3bf92680	0.0076034665
211	0xbd568c80	-0.052380085
212	0xbb39b740	-0.0028337985
213	0x3dd3ad44	0.10335782
214	0x3d9819be	0.07426785
215	0x3dbbc637	0.09168666
216	0xb8fc31bd	-0.00012025561
217	0xbcbcd038	-0.023048505
218	0x3de0d0ec	0.10977349
219	0x3ce07033	0.02739725
220	0xbdf7b8ac	-0.1209577
221	0x3dc42398	0.095771015
222	0xbd7b7f5f	-0.061400767
223	0x3dde3998	0.10850829
224	0x3dcf8cfc	0.101343125
225	0xbd9186d8	-0.071057975
226	0xbee208d8	-0.44147372
227	0x3c46b3c0	0.012127817
228	0xbd96566c	-0.073407024
229	0x3d882500	0.06647682
230	0xbe158ac3	-0.14603715
231	0xbeeeac0a	-0.4661563
232	0xbdbfc814	-0.09364334
233	0x3c9f8320	0.019471705
234	0x3d7f0a10	0.062265456
235	0xbba2bb0d	-0.004966146
236	0xbb6f3e68	-0.0036505703
237	0x3dd967ac	0.10615477
238	0xbd7fd550	-0.06245929
239	0xbd278d26	-0.040906094
240	0x3beba840	0.007191688
241	0xbc30dc9f	-0.010794788
242	0x3ddad64c	0.10685405
243	0x3d86cf18	0.06582469
244	0x3db4abb8	0.08821815
245	0x3d58bf94	0.05291708
246	0x3cb71740	0.022349954
247	0x3c85d8db	0.016338756
248	0x3d509ede	0.050932758
249	0xbd12cdd0	-0.03584081
250	0x3ddd3e74	0.108029276
251	0xbdbf1ed4	-0.09332052
252	0xbf0c953e	-0.54915226
253	0x3c8eb80c	0.017421745
254	0x3dbb0048	0.09130913
255	0x3da9b30a	0.08286102

fc2.bias f4 [28]
0	0xbd647779	-0.055778
1	0x3dd7b59d	0.10532687
2	0x3d88e19c	0.066836566
3	0xbe5936e1	-0.21212341
4	0xbdf71265	-0.12064055
5	0xbe18c859	-0.14920177
6	0x3efbfd91	0.49216893
7	0xbe11569e	-0.14193198
8	0xbbd15e60	-0.006389424
9	0xbf1dbd90	-0.61617374
10	0x3d8f1102	0.06985666
11	0x3dd16fdd	0.10226414
12	0xbda4be64	-0.08044127
13	0x3d7e8474	0.062138036
14	0x3d1313b3	0.03590746
15	0x3f0200b9	0.5078235
16	0xbef8ab1a	-0.4856804
17	0x3ee42220	0.44557285
18	0xbedf63d1	-0.4363084
19	0xbd594e9c	-0.053053483
20	0x3e271696	0.1631721
21	0xbf087144	-0.5329783
22	0x3f306785	0.6890796
23	0xbe074328	-0.13209212
24	0x3f0400f9	0.51563984
25	0x3da6b760	0.08140445
26	0x3da759ff	0.08171462
27	0xbddbdbe3	-0.107352994

out.weight f4 [2, 28]
0	0xbd6c3229	-0.057665024
1	0x3da4df2f	0.080503814
2	0xbe14b587	-0.14522372
3	0x3dad6625	0.08466748
4	0xbc208d59	-0.009799325
5	0x3d84a8d4	0.06477514
6	0x3eb6afc6	0.3568098
7	0xbd3aef70	-0.0456385
8	0xbd5ebe68	-0.054380804
9	0xbe0e61be	-0.13904473
10	0x3dc82c1a	0.09774037
11	0x3dee54ea	0.1163729
12	0x3c39de80	0.011344552
13	0xbe12e498	-0.14345014
14	0xbdad2265	-0.08453826
15	0x3e924ce6	0.28574294
16	0xbe515e63	-0.20446162
17	0x3de6e86a	0.11274798
18	0xbe841945	-0.2580053
19	0x3d8e76d6	0.0695626
20	0xbb1ba6c1	-0.0023750516
21	0xbe9c5f17	-0.30541298
22	0x3f2f2e4d	0.68430024
23	0xbd963668	-0.07334596
24	0x3e767017	0.24066196
25	0x3dbc0783	0.0918112
26	0x3c8c7e17	0.017149968
27	0x3e07ec58	0.13273752
28	0xbdd43106	-0.10360913
29	0x3db1da26	0.08684187
30	0x3cb5e468	0.02220364
31	0x3e4ae12d	0.1981246
32	0xbd6fc894	-0.058540896
33	0x3cfdf34a	0.030999798
34	0xbe48d4ea	-0.1961247
35	0x3d269169	0.040666018
36	0x3c761da0	0.015021712
37	0x3eab1417	0.33413765
38	0x3cfafa48	0.030636922
39	0x3e32ea76	0.17472252
40	0x3c4cb220	0.01249364
41	0x3e0fcc79	0.14042844
42	0x3d1c9921	0.038231973
43	0xbe93f7da	-0.28900033
44	0x3ef68c00	0.48153687
45	0xbe81e2cd	-0.25368348
46	0x3e5019a8	0.20322287
47	0x3dd54c32	0.10414924
48	0xbdb5dc8c	-0.088799566
49	0x3c709322	0.014683517
50	0xbf18a0bd	-0.5962027
51	0x3c2c965d	0.010533896
52	0xbe3101f3	-0.172859
53	0xbe1a9aff	-0.15098189
54	0x3c84b36b	0.016198834
55	0x3e4cbd36	0.19994053

out.bias f4 [2]
0	0x3ee5deb3	0.4489647
1	0xbe899686	-0.26872653
